examples/linear_model/onnx/simple_model.onnx (onnx, 407561 bytes, 4 tensors)

fc1.weight f4 [128, 784]
00000000: 4cf0 0fbd ec6b cabc a1f7 5cbc b37a 903c
00000010: 2765 9f3c c82c 05bd e58b 0ebc fce3 873c
00000020: 7bf0 04bd 639b b9bc 7356 0d3c f722 8f3c
00000030: f7e3 91bb 4e5d 15bc e8ce dcbc e556 313c
00000040: 6e1c 82bc 278c c33c 1c56 933b 31cc dc3c
00000050: 215d be3c b709 2eba 2511 b13b e7d9 b73c
00000060: aea5 813c b3ec dfbc 7c17 9ebc c3b9 abbc
00000070: c341 ffbc bb12 023d e150 323c dc04 1d3c
00000080: e388 b33c c584 64bc 51c5 b83c b785 093a
00000090: ba2b ebbc d79a 24bc 22ff 0dbd 232d 11bd
000000a0: eaf7 a73c 152c 97bc 90ef 823c 93f9 15bb
000000b0: 4ace 43ba dc66 34ba 8e2f 483c 1ad6 ecbc
000000c0: d116 c73c ea1f 9fbc 1c1b f2bb e584 5fbc
000000d0: dcb6 1db9 5c41 0d3b 97d0 2f3c 70da 853c
000000e0: ca91 3abb 7c71 a53c 45d7 b3bc b3be d93c
000000f0: 2739 873c bb92 0e3d 33fe cfbc dcba cab9
00000100: 41d5 ce3b fcbe d2bc dc92 c23a 4004 913b
00000110: 13d2 23bc 61fa 503c 2e88 af3c 4370 ffbc
00000120: 9061 82bc 3a19 a6bc 0adb 9abc 1700 b73c
00000130: ee94 b9bb 7022 0e3d a1f2 d13c 5aaa e73c
00000140: 2591 8139 25bb 483a 53ad e8bc 4ef2 033c
00000150: 2c37 d13c eacf 32bc 75a1 03bd 4a76 8aba
00000160: da29 04bd 736c 823c 96c8 113d 3707 583b
00000170: 81be 46bb 6173 f33c 1a7e bebc 1afc 96bc
00000180: 3a79 d6bc 4ab6 83bc 4a92 2cb7 bc36 9c3c
00000190: 25d3 493c 6cb5 e3bc 02cb 003d 05c2 063c
000001a0: 6334 0a3d 07fe a23c 2561 e1ba c395 09bd
000001b0: 734f 893c 1a50 cdbc 26be 0e3d 2a13 ed3c
000001c0: 57cd 10bd 9cd0 a8bc 752c 91bc d3c6 013c
000001d0: ee50 dfbc 71d5 e33c 5350 3fbc c52a af3c
000001e0: 0094 86ba 6edb 23ba 9332 073c 7a01 06bd
000001f0: aa0e f63c 4af2 483b 3740 87bc 1cc5 cfbb
00000200: 7eaa 9c3c 2766 bfbc 25a2 0bbd 139a 1cbb
00000210: 83c0 81bc 4104 b7bb 2e02 c63c f383 bf3c
00000220: bcd1 4fbc 132a 03bc 1311 e6bc 41c9 f4bc
00000230: 3340 70bc c162 f93c a605 09bd 9323 f9bc
00000240: 73a3 703c 138e 06bd 0138 e339 7e36 113d
00000250: d5e4 d33c 539b a6bb 4ab1 603c f832 05bd
00000260: f8a5 ea3c 13dc ddbb 258d 9eba 6042 0a3c
00000270: 9483 0b3d 73f3 11bc 13b1 69bc 9309 c63b
00000280: 7cc6 b23c 1aae e53c 61f0 b0bc bcab dcbc
00000290: a5c9 04bb 9c30 6d3c 4e28 643c a308 e43c
000002a0: 4086 10bc fee0 e03c 0a11 eabb d72b 21bc
000002b0: f3e6 893c e57a 76bc 9382 d93a 2586 e8ba
000002c0: 6e10 efba 733d 5cbc a1c8 543c 851d 69bc
000002d0: d876 6e3c 2525 7fbc 016e ffbc f78b 86bc
000002e0: ca47 3ebb 012b 69bc 45ec 98bc 870e db3c
000002f0: 4a09 6fbb ae52 99bb 7127 e6bc 60b5 0a3d
00000300: 9302 99bc 7300 cdbc ec9b 85bc 83c0 10bd
00000310: de0c 04bd 38c4 5ebb 747b 0fbd 41dd 79bc
00000320: 2e5a e6bb dcf1 5c3b aa7b 56bc dc53 903a
00000330: 8849 febc 80df 0bbb 976d 573c bc3f 90bc
00000340: 01fc 2b3c 23dd 90bc 01c8 343c 8c04 efbc
00000350: 179a 96bc b0ea 9e3c 32a8 073d e74c ce3c
00000360: 5a24 99bc fc9e a4bc 0a5a dbbb 975a dabc
00000370: 0e73 743c 6e3a f73c aed6 fb3c a7df 07bd
00000380: ee81 a1bc e582 453c 231b 993c 25de cabb
00000390: 0c9e a2bc a547 993b 8184 d0bc 1318 abbc
000003a0: ce65 9b3c 704c 88bc 9371 603c b534 a13c
000003b0: cded 0abd 427b 103d 4cf9 9dbc d542 fcbc
000003c0: b778 89ba 9168 f9bc 0c51 efbc 0386 c03c
000003d0: 93f5 403c ce61 5b3c 857a b9bc a171 30bc
000003e0: a514 033c 7759 863b cbfa 0cbd f642 013d
000003f0: 7348 e4bc 3a88 0f3d 7ca2 0a3d 5083 063d
-0.035141274 -0.024709664 -0.013486774 0.017636633 0.019457413 -0.03251341 -0.008700346 0.016588204
-0.032455903 -0.022657102 0.008626568 0.017472727 -0.0044522244 -0.009116484 -0.02695413 0.01082394
-0.015882697 0.02387054 0.004496349 0.026952835 0.023237767 -0.0006639021 0.005403655 0.022442771
0.015826073 -0.027334547 -0.019298308 -0.020962602 -0.031159287 0.031756144 0.010883541 0.009583678
0.021915859 -0.01394767 0.022555025 0.00052460603 -0.028707374 -0.010046682 -0.03466714 -0.035443436
0.020503957 -0.018453637 0.015983373 -0.0022884354 -0.0007469399 -0.00068817823 0.012218369 -0.028910685
0.024302872 -0.019424397 -0.0073884856 -0.013642524 -0.00015040807 0.002155385 0.010730884 0.01633951
-0.0028468245 0.020195715 -0.021953234 0.02658019 0.016506745 0.0348079 -0.025389766 -0.00038667663
0.006312043 -0.025725834 0.0014844793 0.0044255555 -0.009998816 0.0127550075 0.02142724 -0.03118146
-0.015915662 -0.0202757 -0.018903274 0.02233891 -0.0056635058 0.03470081 0.02562839 0.028279472
0.00024712938 0.0007657281 -0.02840296 0.008053375 0.025539003 -0.010913828 -0.0321364 -0.0010563817
-0.032266475 0.015920853 0.035591684 0.0032963285 -0.0030325952 0.029718103 -0.02325349 -0.018430758
-0.026180852 -0.016078133 -1.02860595e-05 0.019069068 0.012318407 -0.02779647 0.031443603 0.008224969
0.033741366 0.01989652 -0.0017195089 -0.03359009 0.016761517 -0.02506261 0.03484931 0.028939802
-0.035352077 -0.020607285 -0.017721394 0.007920939 -0.02726027 0.027811738 -0.011676866 0.021382699
-0.0010267496 -0.0006250654 0.008251804 -0.032716252 0.03003629 0.0030661994 -0.016510112 -0.006340636
0.019124266 -0.02336414 -0.03409018 -0.0023895546 -0.015838867 -0.005585224 0.024170961 0.023378348
-0.012684282 -0.008005637 -0.028084313 -0.029881122 -0.014663744 0.030442597 -0.033452652 -0.03041247
0.014687407 -0.032850336 0.0004333854 0.03545236 0.025865952 -0.005084434 0.013714144 -0.03251931
0.028643593 -0.0067706197 -0.0012096508 0.008438677 0.03406103 -0.0089081405 -0.014263409 0.006043622
0.02182316 0.02803712 -0.021598997 -0.026937358 -0.002026179 0.014476921 0.013925625 0.02783615
-0.00882107 0.027451035 -0.0071431445 -0.009837112 0.016833758 -0.015043949 0.00165947 -0.0017740173
-0.0018239149 -0.013442385 0.012987287 -0.014228229 0.014554702 -0.015572821 -0.031180384 -0.016424162
-0.0029034489 -0.014231444 -0.01866735 0.026740326 -0.0036474043 -0.0046790456 -0.028094979 0.03386438
-0.018677985 -0.025024628 -0.0163097 -0.035339843 -0.032238834 -0.0033991467 -0.035029843 -0.015250505
-0.007029793 0.0033713495 -0.013091007 0.001101132 -0.031040922 -0.0021342933 0.013148687 -0.017608516
0.010497094 -0.017683571 0.011034013 -0.029176973 -0.018384023 0.019399017 0.033119388 0.025183154
-0.018694092 -0.02009534 -0.006694083 -0.026654525 0.014920009 0.030179229 0.030742016 -0.033172276
-0.019715276 0.0120551335 0.018689698 -0.0061910325 -0.019850753 0.00467773 -0.025453808 -0.020885503
0.018969443 -0.01663801 0.013698953 0.019678453 -0.03391819 0.035273798 -0.019283913 -0.030793587
-0.0010488246 -0.030445369 -0.02921345 0.023501402 0.011777299 0.013390018 -0.02264143 -0.010769279
0.0080005275 0.0041000205 -0.034418862 0.031558 -0.027866578 0.035042025 0.033846363 0.032840073

fc1.bias f4 [128]
00000000: c1f0 ed3b ae26 663c 258f d03c b760 8cbb
00000010: de23 973c 357a e13c b73b 833c b757 a5ba
00000020: e563 e23c a329 e23c 4013 a3bc 4a6a f2bc
00000030: 3aac f93c 2530 6c3b 0744 a33c 7e30 d0bc
00000040: a539 61bb 65df e7bb 7fe6 0ebd b8f3 753b
00000050: 135e d0bb 53ae af3b d349 a9bb 0102 653b
00000060: 25c7 55bb 73d8 1e3c 61db ccbc 4a0e 093b
00000070: 7cf6 93bc b39f 0d3c 930c 2c3b 8457 063d
00000080: 2e13 af3c b769 a0bc 51ad f3bc aae2 be3c
00000090: d5a7 a63c 60da 09bd 9759 88bc 3a74 903c
000000a0: 6af0 acbc b5a8 bcbc 157b fb3c 057e 4c3c
000000b0: a13e ee3c b713 11ba c700 afbc c58f 103d
000000c0: 358d 8dbc aa5b 1a3c c765 a9bc 0a7f b9bb
000000d0: dab6 c53c 3743 433b 551b d7bc 3734 d73c
000000e0: bae6 ab3c ae92 09bc 3aed e7bc 4a6c fcbb
000000f0: b145 ec3c b7ca 46bc a3d4 c53c 15e2 ecbc
00000100: ceef 0cbc f3a7 c43c 81ea 743c 9594 103d
00000110: 0a01 42bc 2510 9c3a 93ac 723b 8508 083c
00000120: 014e 313b 37af a3bc b1a6 b03c ca2b a6bc
00000130: 570d 99bc b7c5 26ba 133f b13c 2ca2 803c
00000140: 53d4 043d f318 dd3c 8588 dd3c 9576 e73c
00000150: 7f99 0bbd f784 af3c 0190 ea3c 6317 b23c
00000160: 9354 503c e5a9 ccbb 25ab e03c 81df f53c
00000170: bc6c b53c a567 3bbb 1315 48bc 85f9 ccbc
00000180: c562 8b3c 406b 8f3c c32a a0bc ceb8 a9bc
00000190: c70d 01bd 75a9 9bbc dc2e e0bc d33e edbb
000001a0: 9c4b e6bb d56f c3bc b1b3 d63c 024f 0bbd
000001b0: 9e2a 013d d2a2 05bd 7ca0 0e3c 0078 193b
000001c0: c76f 8bbc d316 243c cac6 b23b b741 ac3c
000001d0: 6569 4b3c 4aa2 d5bb 2ca8 a9bc 7e76 0e3d
000001e0: 2c4b c6bc 0cc3 ad3c 5839 e8bc 807b 8d3c
000001f0: 8afb 7abc 17ba 90bc 6e76 ff3a 778d 90bc
0.007261366 0.014047308 0.025458882 -0.0042839902 0.01844972 0.027524093 0.016019685 -0.0012614642
0.027635524 0.027607745 -0.01990664 -0.029591698 0.030477632 0.0036039439 0.019929899 -0.025413748
-0.0034366634 -0.0070761913 -0.034887787 0.00375293 -0.006358871 0.0053613572 -0.0051662712 0.0034943821
-0.003261992 0.00969516 -0.025006952 0.0020913058 -0.018061869 0.008644032 0.0026252612 0.032798305
0.02137145 -0.019581659 -0.02974573 0.023301441 0.0203437 -0.033655524 -0.016644282 0.017633546
-0.021110732 -0.023029665 0.030698339 0.012481217 0.029082598 -0.0005534249 -0.021362675 0.03529336
-0.017279247 0.0094212685 -0.020678414 -0.005660896 0.024135042 0.0029794702 -0.02625815 0.026270015
0.020984042 -0.008396788 -0.02831136 -0.0077033387 0.028841825 -0.012133292 0.024149245 -0.028916398
-0.008602096 0.024005866 0.014948488 0.03529795 -0.011841068 0.0011906667 0.0037029132 0.008302812
0.002705455 -0.01998101 0.02156386 -0.020284552 -0.018683119 -0.0006361859 0.021636521 0.01570233
0.03242905 0.026989436 0.027042637 0.028254787 -0.034081932 0.021425707 0.02863312 0.021739667
0.012715477 -0.006245839 0.027425358 0.030013802 0.022146575 -0.0028595713 -0.012212056 -0.025021324
0.01701487 0.017507195 -0.01955164 -0.020718005 -0.03150728 -0.019001702 -0.027366094 -0.0072401552
-0.0070280563 -0.023857037 0.02620873 -0.034010895 0.031534784 -0.03262598 0.008705255 0.0023417473
-0.017021073 0.010015207 0.0054558264 0.021027429 0.012415265 -0.0065195905 -0.020710073 0.03478097
-0.024205767 0.02121117 -0.028347656 0.017270803 -0.015318761 -0.01766686 0.0019490251 -0.01764558

fc2.weight f4 [10, 128]
00000000: 8353 10bd 5ee1 5fbd e80c 223d bba2 b13d
00000010: 8843 673d 88bd 91bd 3d7a 183d 8251 3bbc
00000020: e00f 1e3c ac5a fb3c f93c 3c3d 0219 f9bb
00000030: 2417 c93a 2eed 54bc 5689 ac3d 5bb9 88bd
00000040: 204b 963d 31f0 e43c 3001 8bbd 5cdf e73c
00000050: b16a a23d 936d 73bd 49a4 56bd 7167 73bc
00000060: f627 42bd 9f45 9fbd 61bb 493d fefb ae3d
00000070: 91aa b3bd 8386 3abd 61cb 83bc ab38 0b3d
00000080: e535 dfbc 47a8 bc3c cc42 53bc 3b69 8dbd
00000090: 3011 f9bc 8688 953d 996d 983d 3fee 363d
000000a0: 517e af3d 5036 82bd 2555 a4bd ca84 07bd
000000b0: 4def a2bc cbca 893c b0b5 6f3c d466 393d
000000c0: 8421 d8bb 6c7c d4bc 9003 25bd fbfb 953d
000000d0: 2225 05bd 9eb9 223d 1e93 a3bd c1d0 e3ba
000000e0: 2808 19bd 07a3 90bc 488b 56bb d4e9 4fbd
000000f0: 982f 903d e94d 3a3c 6215 0e3d c23b 8e3d
00000100: 52b1 113c 0da0 003d c505 993d af54 233d
00000110: 2edc efbc b9d4 1b3d 691f 22bd b3ef a23d
00000120: f4d5 b33b 32e0 723d 2052 3fbd 2e95 24bd
00000130: 7473 cbbc 7813 a03d 6c06 65bc a417 66bd
00000140: 8a3b dd3b b039 6fbd 8b42 6c3d 2854 61bd
00000150: 9309 a7bc b15c a33d 203a 39bd 716d b23d
00000160: 4492 5e3c 24db 973b f359 883d c454 94bd
00000170: fff3 cabb 3a7a 97bd cf4b 19bc eb12 08bd
00000180: c8cb a83c d1ac 943d 083e 9fbc 8d76 76bd
00000190: 0c3b b13d 1dd2 e53a 4184 b03c cd5b 89bd
000001a0: 6eea 743d cc84 a03d a8bb 423d 4619 a53b
000001b0: bbb4 683c f824 093d 6a11 9a3d 2278 78bd
000001c0: 852a c93c 1064 e23b 3d4d 6e3c cd5e cd3c
000001d0: 9a5e 49bc a7ea 363d a472 5fbb 7753 b4bc
000001e0: 0951 b03c 72d7 9c3c 8509 a63d f8bd 9d3d
000001f0: 3786 16bd 74d6 bdbc 0eca b1bc 9585 9e3d
00000200: 2fd3 f83c 637e 0a3d f1de aabd 93da 84bd
00000210: 405b eebb 536b 8d3d cab9 ac3d 1d56 a2bd
00000220: c1c4 2cbd 3add 953c ecdd 7ebd a194 173d
00000230: 75c5 933d 8d38 af3d 558d 6cba b791 4dba
00000240: 4106 b9bc ae97 6f3c f9b8 ae3d cc98 adbd
00000250: e2ed 82bd aa68 bbbb 1fde 8ebd d237 8b3d
00000260: f916 95bb fc9e 103d e660 ad3d 3b4b 8dbd
00000270: 0a31 b8bc a022 ae3d 9514 053c f47b a7bd
00000280: 4f30 9bbd 0ae6 963c 8392 2f3d 4fe3 973d
00000290: 1483 9fbd 8ea3 2ebd 1a24 5c3c d8f0 1cbd
000002a0: 8ce4 073c ac7e 113c 297e 853c a1bf d23c
000002b0: 2497 873c 0657 063d 0644 c83c 3a53 09bb
000002c0: 2e01 20bd bdd4 893c d8ce 9d3d 76f5 f3bc
000002d0: 2a8e 95bc d731 913c 1f47 133d 884e ac3d
000002e0: a301 ca3b 58a8 d53c 5ac0 073b b786 00bd
000002f0: be71 813d a842 7a3c 24f6 61bd ae61 65bb
00000300: 0040 fbbc a3ec a0bc a140 643d 2e04 9f3c
00000310: af9e a13d 4b59 b1bd ea01 83bd ac22 803d
00000320: de1b 69bd 1dff 193d 15b4 023d a739 a2bd
00000330: 10fa 843d 322d 5ebd eaee 80bd e1d6 623d
00000340: 525c 8fbd 3450 693c b084 6dbd 25bf 5a3b
00000350: 2dc8 3ebd d08e 4ebd 7a7a b23d 2f23 8fbd
00000360: 6ed6 a83c 11a3 2abc 904c 2dbd 2d16 3fbd
00000370: 3c98 6c3d 6841 87bd 25c9 233d 7716 86bd
00000380: 5c4f 5d3d 851b 81bc 08e4 7cbd a959 283d
00000390: a3be 5e3c 805b 013d 0784 9cbc 6dc3 1a3d
000003a0: c348 66bd 9a79 3d3d 9cc8 743d fa93 0a3d
000003b0: 2e6e 7c3d 30a5 3bbd de25 c33c b593 26bc
000003c0: d792 8abc 1bea 963d 102d e6bc 5784 373d
000003d0: 15aa aa3d ea89 90bd 041f e93b 9acb 6cbc
000003e0: 481d ad3d 4e4c 863d d83c 313d dbb2 b9bc
000003f0: 5dce 61bd a0ac 54bd 9b78 87bc 0723 343d
-0.035235893 -0.054658286 0.03956309 0.086736165 0.056460887 -0.07116228 0.03722595 -0.011433007
0.00964734 0.030682884 0.045956586 -0.007601858 0.001534198 -0.012996001 0.08424632 -0.06675979
0.07338548 0.027946563 -0.06787336 0.028304748 0.07930506 -0.05943067 -0.05240277 -0.014856205
-0.04740139 -0.07776951 0.049250964 0.085441574 -0.08772767 -0.045538437 -0.01608819 0.03398959
-0.027247379 0.02302946 -0.012894344 -0.06904837 -0.030403703 0.073014304 0.07442779 0.044660803
0.08569015 -0.063580155 -0.080240525 -0.033085622 -0.019889498 0.016820332 0.01463072 0.04526408
-0.0065957922 -0.025938235 -0.0402866 0.07323452 -0.032506116 0.0397278 -0.07987045 -0.0017380939
-0.037361294 -0.017655862 -0.0032736827 -0.050760105 0.07040328 0.011371114 0.03468836 0.06944992
0.008892374 0.031402636 0.074718036 0.039875682 -0.029279795 0.038044665 -0.039580736 0.07955875
0.0054881517 0.05929584 -0.04670918 -0.04018133 -0.024835326 0.07816213 -0.013978582 -0.05617489
0.0067514824 -0.058404624 0.057680648 -0.0550119 -0.020390308 0.07976664 -0.045221448 0.087122805
0.013584677 0.004634278 0.066577815 -0.0724273 -0.0061936374 -0.0739636 -0.009356453 -0.033221167
0.020604983 0.072595246 -0.019438758 -0.060171653 0.086538404 0.0017533932 0.021547439 -0.06706963
0.059793882 0.07837829 0.047542244 0.005038413 0.014203246 0.03348252 0.07522853 -0.060661443
0.024556408 0.006908901 0.014544782 0.025069619 -0.012290621 0.044657376 -0.003409543 -0.022012455
0.021523016 0.019145701 0.081072845 0.07702249 -0.03674909 -0.023173548 -0.021702792 0.077403225
0.030374138 0.033811938 -0.08343304 -0.06487002 -0.0072740614 0.06905236 0.08433874 -0.07926581
-0.042179827 0.018293966 -0.06222336 0.037006978 0.07215396 0.08555708 -0.00090237457 -0.00078418426
-0.02258599 0.014623566 0.085313745 -0.08476409 -0.06393029 -0.005719264 -0.0697596 0.06797756
-0.0045498577 0.03530787 0.084657475 -0.06899115 -0.022484321 0.08502698 0.008122583 -0.08177939
-0.075775735 0.018420238 0.042864334 0.074164025 -0.07788673 -0.042636447 0.013436342 -0.038315624
0.008294236 0.008880299 0.01629551 0.025726141 0.016551562 0.032797836 0.024446499 -0.0020954148
-0.039063625 0.016825074 0.07705468 -0.02978013 -0.018256266 0.01772396 0.0359565 0.08413416
0.006164746 0.02608125 0.0020714016 -0.031378474 0.06320523 0.015274681 -0.05516638 -0.0035000849
-0.030670166 -0.019644087 0.055725697 0.019411173 0.078915946 -0.086596094 -0.063968495 0.06256613
-0.05691134 0.03759681 0.03191002 -0.079211526 0.06493008 -0.05424232 -0.06295569 0.055380706
-0.070000306 0.014240313 -0.05798787 0.0033378091 -0.04657762 -0.050429165 0.08714767 -0.069891326
0.02061006 -0.010414855 -0.042309344 -0.046652008 0.05776237 -0.06604272 0.03998675 -0.065472536
0.05403076 -0.015760193 -0.061740905 0.04110113 0.013595256 0.0315814 -0.019105924 0.03778403
-0.056221735 0.046258546 0.05976163 0.033832528 0.061628513 -0.045811832 0.023821767 -0.010167052
-0.016915722 0.07368871 -0.02809766 0.044803943 0.08333222 -0.07057555 0.007114293 -0.014452839
0.084528506 0.06557523 0.043270916 -0.022668293 -0.055128444 -0.05192244 -0.016537001 0.043978717

fc2.bias f4 [10]
00000000: dc96 283d bf42 99bd 53b9 6abd 0346 873d
00000010: 2b0a 963d 89fb 973d 5858 8d3d 43ce 82bd
00000020: 7f38 8abd bb03 ad3d
0.041159496 -0.07483434 -0.057305645 0.066051506 0.07326158 0.074210234 0.06901616 -0.063869976
-0.06749057 0.08447977
